mlp6selu_selu
_________________________________________________________________
Layer (type)                 Output Shape              Param #   
=================================================================
dense_13 (Dense)             (None, 1024)              269312    
_________________________________________________________________
dropout_10 (Dropout)         (None, 1024)              0         
_________________________________________________________________
dense_14 (Dense)             (None, 256)               262400    
_________________________________________________________________
dropout_11 (Dropout)         (None, 256)               0         
_________________________________________________________________
dense_15 (Dense)             (None, 64)                16448     
_________________________________________________________________
dropout_12 (Dropout)         (None, 64)                0         
_________________________________________________________________
dense_16 (Dense)             (None, 1)                 65        
=================================================================
Total params: 548,225
Trainable params: 548,225
Non-trainable params: 0
_________________________________________________________________
mlp6selu_selu
_________________________________________________________________
Layer (type)                 Output Shape              Param #   
=================================================================
dense_1 (Dense)              (None, 1024)              269312    
_________________________________________________________________
dropout_1 (Dropout)          (None, 1024)              0         
_________________________________________________________________
dense_2 (Dense)              (None, 256)               262400    
_________________________________________________________________
dropout_2 (Dropout)          (None, 256)               0         
_________________________________________________________________
dense_3 (Dense)              (None, 64)                16448     
_________________________________________________________________
dropout_3 (Dropout)          (None, 64)                0         
_________________________________________________________________
dense_4 (Dense)              (None, 1)                 65        
=================================================================
Total params: 548,225
Trainable params: 548,225
Non-trainable params: 0
_________________________________________________________________
